src/deepdetector/model/model.onnx (onnx, 96995 bytes, 8 tensors)

1.weight f4 [9, 1, 5, 5]
00000000: f80a 13be 03f1 05bd e159 60be 8845 4c3d
00000010: 2e8c 253d a334 cebd d457 58be 8634 853c
00000020: 81a9 bb3d a40a 8ebd 2ccd 22be fac9 15be
00000030: 84f7 0abe d7b0 e93d e18b a53d 3db7 c1be
00000040: a44d bebe 0c21 f73d 9349 e03d 44bc c43e
00000050: 078a 7ebe e6a8 9a3d d724 983e d234 b53e
00000060: 2578 b43e 750b 8b3d be70 b9bd ce86 34be
00000070: b4eb 203e 344b 1fbe 16e0 f9bd 56f5 62be
00000080: f4a2 9cbd 8e34 56be a107 68be 22f0 cfbd
00000090: f700 f9bc c02a de3c 7226 f23d 08ba 4bbe
000000a0: eb34 a7bc 4e18 5abd 5c1b 6abe c08f 2fbd
000000b0: 3061 a83d 00fb 3abe edb6 35be a7a9 3fbe
000000c0: a99c 32bc 1c4e 203e b8ee a43e d6c0 9b3e
000000d0: a8d0 e23e 6bb0 a73e 7666 363e dab1 40bd
000000e0: 6677 e0bd ef93 553d f328 30bd 55c9 2a3d
000000f0: cf5f 3bbe 833e 9cbe 1fef 84be fe21 92be
00000100: 5fd2 bdbe a7e6 f5bd 6822 2ebe 3712 6cbe
00000110: a770 2ebe b729 04be c562 b23d 56a1 753a
00000120: 4386 ce3b 7101 b83e c4b6 133e ae09 be3c
00000130: baf4 d8bd 63e3 e4bc be50 e7bc e266 58bd
00000140: fdcd 9dbd f124 f8bb 8987 40be 2c53 9b3b
00000150: 9430 f53d cb75 1cbe 1ac0 9c3d 49dd 273d
00000160: 9e9a 4bbd 9429 473c ec6c 3dbe 1ee3 f83c
00000170: 08bc 9a3d 4683 81bd 7bd8 2cbb d2d8 9f3d
00000180: 4d91 afbd 8eab e2bd 4b97 523c 4856 043e
00000190: f8bf bf3e 9a3c e63e 8815 483b 7b35 8ebd
000001a0: a71e 88be 9c42 103f e45e 913e 154f 9ebe
000001b0: 5dcf 28be cf0c 17bd e24c be3e 8121 c83d
000001c0: 9413 83be cd0f 97be 6f40 2bbe 841b cc3e
000001d0: 57d3 883e d2eb 48bd 0fe5 f2be 5a0f 94be
000001e0: d685 283f c622 3f3e 9fd7 aabe 4cba 1abf
000001f0: 2ee3 0ebf bf33 c9bd 06a7 113e be43 df3d
00000200: 18b1 2e3e f28a 03be 3b69 78be 12f6 88bd
00000210: eebb dbbd 714f 67be d840 97bc 0037 d2be
00000220: e6fa b7be 01f3 18bf 4255 c3be d7b0 1abe
00000230: 2bf3 b53d 9b4f 033f 2f98 a13e 91b0 b03e
00000240: 5f6d 59bd b60c 443d 922d 593f e649 463f
00000250: f36c 243f fb26 2b3e 4163 573d 712e aa3e
00000260: 8719 5f3e 2b8f 133f 9c62 6b3e 3059 583e
00000270: d2f9 053e 7495 d33e ebe0 6f3e 00e9 20be
00000280: 3c11 8a3e 97c1 0a3d 1585 22be 0bc1 8dbe
00000290: 2138 d3be 73cd 393d 02af 303e 19a6 3abd
000002a0: 787b 083e 20f1 3b3e 4883 20be cd9f 8f3d
000002b0: 4005 57bd 3e53 893e 1efd 133f 9711 1b3e
000002c0: 21ed 663d 24d2 adbe d7e8 13bf f26f d6be
000002d0: 6753 b63e f28b a3bd add8 01bf 4fa2 9dbe
000002e0: bfe4 b6be 4830 283f ed44 773e 7639 28be
000002f0: 4569 90be 3f31 8bbe b19c 1b3f 6168 b33e
00000300: 4029 103e 96b2 113d 57b9 4fbe cdb8 253f
00000310: 64fd 2c3f 15bf 743f 08d1 7c3e b8e9 843d
00000320: ea00 f7bd 13e5 2dbd 6004 953d 7d70 003d
00000330: d560 43be 5824 273e 2776 b33e 3fa7 0d3f
00000340: f415 973e eb33 183f 8396 df3d 5f9a 8b3e
00000350: b78f ae3e 582c ad3e 6867 273e 7bdc 0abf
00000360: e333 d9be 8ced 5dbe 2eec cfbd abf0 dc3d
00000370: 2532 2dbf dfb6 55be 401e b1be 6156 93bd
00000380: f57c 703e
-0.14359653 -0.03270055 -0.21909286 0.049870998 0.04041689 -0.100686334 -0.21127254 0.016260397
0.0916319 -0.06935623 -0.1589858 -0.14627829 -0.13570982 0.11410683 0.080833204 -0.37835112
-0.3716861 0.1206685 0.10951533 0.38424885 -0.24857341 0.07551746 0.29715607 0.3539186
0.35247913 0.06789295 -0.09054707 -0.17629549 0.15714914 -0.15556031 -0.12200944 -0.221639
-0.07648268 -0.20918486 -0.2265916 -0.101532236 -0.030395968 0.027119994 0.11823739 -0.19895184
-0.020410975 -0.053245835 -0.22862 -0.0428617 0.08221662 -0.18259811 -0.17745562 -0.18717061
-0.0109016085 0.15654796 0.32213378 0.3042056 0.44299817 0.32751784 0.17812523 -0.047044612
-0.109602734 0.052143034 -0.043007802 0.04169591 -0.18298267 -0.30516443 -0.25963685 -0.2854156
-0.37074563 -0.12006884 -0.17005312 -0.23053823 -0.17035161 -0.12906538 0.08710245 0.0009370049
0.0063026263 0.359386 0.14425188 0.023197975 -0.10593553 -0.027940458 -0.028236743 -0.05283249
-0.07705305 -0.007572763 -0.18801703 0.0047401395 0.11972156 -0.1527931 0.07653828 0.04098252
-0.049708 0.012155909 -0.18498582 0.030381735 0.07555395 -0.063238665 -0.002637415 0.07805027
-0.08572636 -0.11067878 0.012853454 0.12923539 0.37451148 0.4496811 0.0030530412 -0.06943794
-0.26585886 0.5635164 0.28392708 -0.3091971 -0.16485353 -0.03687745 0.37168032 0.09772015
-0.25600874 -0.29504243 -0.16723798 0.39864743 0.2672374 -0.04905302 -0.47440383 -0.28917962
0.6582922 0.18665609 -0.3336763 -0.60440516 -0.558154 -0.09824323 0.1422387 0.10901593
0.17059743 -0.12845972 -0.24258892 -0.06687559 -0.10729204 -0.22588898 -0.018463537 -0.41057587
-0.35933608 -0.59745795 -0.38150984 -0.15106522 0.08884271 0.51293343 0.3156142 0.3450971
-0.05308282 0.047863685 0.8483516 0.7745651 0.64228743 0.16714089 0.05258489 0.33238557
0.21787082 0.5764033 0.22986835 0.21127772 0.1308358 0.4132496 0.23425643 -0.15713882
0.26966274 0.033876028 -0.1587108 -0.27686343 -0.4125376 0.045361947 0.1725426 -0.04556856
0.1332835 0.183537 -0.1567508 0.070129015 -0.05249524 0.2682132 0.578081 0.15143429
0.056378487 -0.33949387 -0.5777716 -0.41882282 0.35610506 -0.07985677 -0.50721246 -0.30787894
-0.35721394 0.6569867 0.24147387 -0.1642817 -0.28205314 -0.2718601 0.6078597 0.35040572
0.14078236 0.035570703 -0.20285545 0.6473511 0.67574143 0.9560407 0.24689114 0.06489891
-0.12060721 -0.04245479 0.07276225 0.031357277 -0.19079907 0.16322458 0.3505108 0.5533332
0.29508936 0.5945422 0.1091738 0.27266213 0.3409402 0.33822894 0.1634804 -0.54242676
-0.424224 -0.21672648 -0.101524696 0.10788091 -0.6765464 -0.20870541 -0.3459339 -0.0719421
0.23485167

1.bias f4 [9]
00000000: 19ad 693d b3b6 c43e 3876 963e 756a 18be
00000010: 4e03 543e b55d 7e3e 4a80 4bbe 65e8 1f3e
00000020: ac31 2a3e
0.057049844 0.38420638 0.2938707 -0.1488436 0.20704386 0.24840434 -0.19873157 0.15615995
0.16620511

4.weight f4 [32, 9, 3, 3]
00000000: 74f8 283e 90fb 233e a75b d93d 8248 c1bd
00000010: 0c35 0f3d 8403 173e 5a5e ea3d bff4 ba3d
00000020: 9ab6 633d de3c f83c c045 283e e0c0 b1bc
00000030: 6e67 8bbd 39a0 c53c 6cb4 e23d 3d87 053e
00000040: f96a 133d 65a6 103c 4867 7abb faed 52be
00000050: 9b2e edbd 27fb dd3d cc75 cfbd 9b4e 0ebe
00000060: 76a6 e43d d64b a1bd 40bb 193e 74bb 78be
00000070: 7cb8 7a3d 1f14 a1bd af12 ddbd c053 b6bc
00000080: ee4c 9bbd d274 63bc e9c2 3ebd c3ac 6e3e
00000090: d980 453e f439 b13d 1d6a ea3e f964 a03c
000000a0: 4870 c23e b318 c53d 410c c4bd de1b 483e
000000b0: d76d 203e b282 c9bd 3a01 20be 5c63 d13d
000000c0: 40cc 993c 8c7f 123e 6ea3 a5bd a4e3 63be
000000d0: 63d7 0e3e 6caa a73d 7a01 bfbd 3493 063e
000000e0: f007 39bd f49a 1c3e 58a4 89bd 1fd2 11be
000000f0: 1baa e93c 91ba 99bd e5db 113e 57f7 2abe
00000100: b693 45bd 0c1d 9b3e fb2d f1bd 3a4c c4bd
00000110: 9b06 513e b150 32be 4143 733d 0f2a 043e
00000120: 008f 89bd e693 8a3d c966 03be 339b bfbc
00000130: 8e1f 88bd 93b1 4b3e 5b6a 573e 6931 4fbd
00000140: a785 ad3d 10cb 0dbe b0ef ddbd 811e 99bd
00000150: 7cc2 db3d e7c4 dcbc 5f3d 4bbd d469 5a3d
00000160: 57c6 c2bd fd95 b43d e5b9 ddbc e52e 3dbd
00000170: 7dad b4bc 0cda afbb 812b 01be a557 8a3d
00000180: 5f24 30bd 77e6 8abd ce9e 753d 8c90 a9bd
00000190: d2e3 b73d 83f5 2c3d 8247 c0bc 2811 3bbe
000001a0: 42be acbd 424a cc3d 5735 cbbd 19c9 fcbd
000001b0: 8a3d b83c dabd c0bd f719 1bbe 99ee 1ebe
000001c0: 0b92 173d 4baa e4bd 7801 933c df9e bebd
000001d0: ebbb 17bc 4a1b 963d c452 913e b2ca 803e
000001e0: 4f66 c0bc b617 a93d a62d bf3e 7b21 1b3d
000001f0: 2f03 233e 6849 dc3d c5da 80bd c11e f03d
00000200: e922 8fbe 96c7 d9bd e123 b23d 4e77 da3d
00000210: 18a0 47be c05c febc 499d bc3d f92f 9d3e
00000220: f2c9 d3bd c1dd 553b 6d20 0e3d 0b1b 62bd
00000230: a8bd debd b404 5bbc aca4 f23d 0ebe 8abd
00000240: 460e 27bd 1ac7 9f3d d2f8 d7bd 8846 7cbe
00000250: e193 853d 949d 053e 3501 3dbe d9e5 bb3d
00000260: 3746 d03e 41a2 fc3c 10b9 c3bd 5913 543b
00000270: 1b3d 033e 65a2 00be 6738 41be ecf3 523d
00000280: 16a6 803e 0830 3b3e 8235 163e c0a3 c1bd
00000290: 2ec8 f03d dcc2 a9b8 5fdb 7d3c 44b8 f53c
000002a0: 6037 aebd e75c 03be 6299 44bd 38b8 773d
000002b0: 84a4 783d ed92 4f3e 2598 19bc 97b1 bc3d
000002c0: 0533 e2bc 05f7 09be c01b 58bd 94b6 a0bc
000002d0: b17a 5b3c e563 07be 88c5 9abb 393d 06bd
000002e0: 7601 6fba fa68 2bbd 7695 cc3c c032 21be
000002f0: 81c0 8abc df72 aa3d 04dc 33bd 1c4e b2bd
00000300: 3007 8fbe c3e7 063e 270d da3d a8d9 dd3d
00000310: b253 173e 3860 8d3c 9ad8 913e fcc8 4bbc
00000320: a896 a43d ab5c d53d 0789 283d d957 723d
00000330: ddb2 5abd be25 e53d 3ac7 15be 8330 fa3c
00000340: 80e0 f23d cf97 67be 860a 33bd ef81 00be
00000350: 74a5 00be a889 bbbc e421 bebd f7a8 743d
00000360: d8a1 43bd 01eb d73d fb99 063e 4da0 1cbd
00000370: f772 2abd e1d7 da3c 91c2 103e 3485 47bb
00000380: 1cdd 5fbd 33e4 833d cb55 f23c 1f42 32bd
00000390: d65e 9ebd 8d1a 13bd 5f00 3f3e 5334 24bd
000003a0: d367 8c3c f201 7dbe e533 bdbd b660 09be
000003b0: 3931 95be ec41 e2bd 4ae2 74bd 5b02 6f3d
000003c0: fd58 593d 5eba 703e 3a4e 15be 1f8e 063e
000003d0: 605a 3b3d 6f5b a7bc 1a00 b03c eb0b 853d
000003e0: 0b6b 9f3e d000 7d3e 76f5 97bc 8ec5 6c3d
000003f0: 528b 823d 918d fbbd 3f10 993d c494 61bc
0.16501027 0.16013932 0.106131844 -0.09437658 0.0349627 0.14747435 0.114437774 0.09128713
0.055594064 0.030302461 0.16432858 -0.021698415 -0.06806837 0.024124252 0.11069569 0.1303987
0.03599069 0.008828734 -0.0038208533 -0.20598593 -0.11581155 0.10838919 -0.1012989 -0.13897173
0.111645624 -0.07875793 0.15012836 -0.24290258 0.061211094 -0.07865166 -0.10794579 -0.022256732
-0.075830325 -0.013882833 -0.0465726 0.23308091 0.19287433 0.08653632 0.45784083 0.019579398
0.3797629 0.096238516 -0.0957265 0.1954188 0.156669 -0.09839381 -0.15625468 0.102240294
0.018774152 0.14306468 -0.08087812 -0.22254807 0.13949351 0.08186802 -0.093264535 0.13142091
-0.045173585 0.15293485 -0.06720799 -0.14240311 0.028523495 -0.07506288 0.1424404 -0.16695915
-0.04823657 0.30295599 -0.11776348 -0.095848516 0.20412676 -0.17413594 0.05939031 0.12906669
-0.06716728 0.06766491 -0.12832178 -0.023389434 -0.066466436 0.19891958 0.21036665 -0.05058423
0.08472758 -0.13846993 -0.108367324 -0.07476521 0.10730454 -0.02694936 -0.049619075 0.05332358
-0.095104866 0.088176705 -0.02706618 -0.0461873 -0.022055382 -0.0053665694 -0.12614252 0.06754998
-0.043003436 -0.06782239 0.0599659 -0.08279523 0.08979 0.042226326 -0.023471598 -0.18268263
-0.08434726 0.09975101 -0.09922283 -0.12343044 0.022490282 -0.09411211 -0.15146624 -0.15520705
0.03700451 -0.11165293 0.017945036 -0.09307646 -0.009261112 0.07329424 0.28383458 0.25154644
-0.023486285 0.082564756 0.37339514 0.037873726 0.15919183 0.10756189 -0.06291727 0.11724616
-0.27956322 -0.10633771 0.086982496 0.10667287 -0.19494665 -0.031050086 0.09209687 0.30700663
-0.103412524 0.0032633396 0.034698892 -0.05520157 -0.10876018 -0.0133678205 0.11847815 -0.06774531
-0.040785097 0.078016475 -0.105455056 -0.2463628 0.06522346 0.13048393 -0.18457492 0.09174699
0.4067857 0.030839087 -0.09556782 0.0032360165 0.12816279 -0.12561949 -0.18869172 0.051502153
0.25126714 0.18280041 0.14668849 -0.09455061 0.11756931 -8.094843e-05 0.015494197 0.029995091
-0.08506656 -0.12828408 -0.04799784 0.06047842 0.06070377 0.20270891 -0.009374653 0.0921356
-0.027612219 -0.13473137 -0.05276084 -0.01961831 0.013395951 -0.132217 -0.0047232546 -0.03277323
-0.0009117344 -0.04184816 0.024973612 -0.15742016 -0.016937496 0.08322691 -0.043910995 -0.087063044
-0.2793517 0.13174348 0.1064704 0.1083253 0.14778021 0.017257795 0.28485566 -0.012438055
0.08036548 0.10418066 0.041146304 0.05916581 -0.053393234 0.111888394 -0.1462678 0.03054071
0.11859226 -0.22616504 -0.043711208 -0.12549566 -0.12563115 -0.022892788 -0.09283808 0.05973145
-0.047761768 0.1054287 0.13144676 -0.038238812 -0.041613545 0.026714267 0.14136721 -0.0030444385
-0.054654226 0.0644001 0.029581925 -0.04352009 -0.07732932 -0.035913993 0.18652485 -0.040088963
0.017139351 -0.24707773 -0.09238414 -0.13415799 -0.29139116 -0.1104773 -0.05978612 0.058351856
0.05306338 0.23508593 -0.14580622 0.13140152 0.045740485 -0.020429341 0.021484423 0.06496414
0.31136355 0.24707341 -0.018549662 0.05780559 0.063742295 -0.12282861 0.07473802 -0.013768379

4.bias f4 [32]
00000000: d726 cbbb 3039 77bd 0f0c 60bd 8a86 293d
00000010: a203 61b8 f171 e23d 3a5d cb3c dc1d bbbd
00000020: 89a2 19bd 99a2 92bd ec70 5fbd adce 6a3d
00000030: 755e 30bc 7331 603b e24f 003e 325d c43d
00000040: f414 ad3d fc9c 6bbd e42b b1bd e240 ddbc
00000050: e928 473d 7aab 293d e469 46ba 2180 773d
00000060: e943 663c afdc 6d3c c0d2 603d 9746 833d
00000070: 3c4d 153d 6309 923d feaa ec3c 63f5 1d3c
-0.0061996984 -0.060357273 -0.054699 0.041388072 -5.3647564e-05 0.11056889 0.024824727 -0.091365546
-0.03750852 -0.07159919 -0.05455105 0.057326008 -0.010764708 0.0034209162 0.12530473 0.09588088
0.08451262 -0.05752276 -0.086509496 -0.027008478 0.048623 0.0414233 -0.00075688795 0.060424928
0.014054277 0.014517947 0.054888487 0.06409948 0.03645061 0.071306966 0.02889013 0.009641024

7.weight f4 [64, 320]
00000000: 1b03 71bb a84d adbb b766 46be 9c50 b4ba
00000010: c976 16bd 685e da3b 77ea 1d3c a881 fc3c
00000020: 6509 bebb 0aa1 5d3d eb10 edbd 11a2 023e
00000030: 7193 ad3d 1a42 6cbd 2fef a4bd a19c 50bd
00000040: 6b36 7dbd fce9 ca3d ffca f4bd 709a 99bd
00000050: 0649 6abe 4b6d 82bd 7032 2c3b 7045 083e
00000060: a363 11be a790 e03c 3f24 bebd 2324 b53d
00000070: 270c 91bc 0c2a c7bd ac09 13bc bec8 ad3d
00000080: 5040 283e c0f0 94bd 2adb 1abd cab5 843b
00000090: 09fc 5f3e 09f2 a1bd 03f4 5ebc 03c8 7fbe
000000a0: 525f 773d 6d7d 333d 8268 c93c 863b 353e
000000b0: 27c0 d7bd 08de d73c 82bf de3d a529 19bd
000000c0: a06e d7bd e6a5 61bc 7570 803e 0cd2 1e3c
000000d0: fbcd 353e 49ff aebc 9529 07bc 035d 0cbe
000000e0: 0089 c03c 5fcf 94bd 551e c13d 6cab be3d
000000f0: 3394 a3bd b07e 1bbe 6cb8 eb3d 12a8 843e
00000100: c6fe 3b3e 3654 a73d 9b53 e0bd 7d6d d6bc
00000110: 4a4b 48bd b43c 3abe dde1 ab3d 14d7 b4bd
00000120: ed7e 843d d868 f63d c280 813d fffa 3ebd
00000130: e371 1b3e f80e 403e 544d 20bc 81fb eabd
00000140: 1ffd 40bd 4686 143e 7fea c4bd 0387 a73c
00000150: e042 0f3d bf3d 10be 788d 0a3e dfb4 5e3d
00000160: 02f3 f33d df96 34bd a60c 653e c190 aebd
00000170: b1b6 723d 9a08 c6bd 7b20 97bd cd4d d83d
00000180: 8e0f 30bc 3485 1e3e ec21 6f3d b789 8d3d
00000190: ca95 823e e91d 6abb 87fd 1b3e 5a62 3ebe
000001a0: 810b c23d e3e8 2d3e 5ed7 b23d c362 7abe
000001b0: 89d0 52be 7eaa 3ebb 00a1 0b3d e257 76bd
000001c0: e215 9c3d 614c 4c3e 2934 22be 743d 353e
000001d0: 5a0f b2bd 28b0 4dbd df64 013e 1540 203e
000001e0: b3af 9f3d 0285 75bd cfd6 dbbd 661c 083e
000001f0: b6cd 633d 39ae 12be 3006 3cbc 5642 9d3c
00000200: 03fb 3fbd b9bf 763d 7249 90bc 917b 5d3d
00000210: 5ed6 93bd 6e9b c13d ff12 3cbd d90d db3c
00000220: 9bbb ee3d 4168 843d 62af 333d 72a6 08be
00000230: 3430 e83d 3da6 e73d d978 2a3e 2141 8d3d
00000240: e56f 0ebe 6ee4 d7bc 88c9 eabd 4554 1f3c
00000250: 9785 5d3d 461d 19be 8620 04be 2ee1 e3ba
00000260: 2a64 9dbd b7bf 353d 5cc8 b1bd 51ee 483d
00000270: 2ffe 9e3d 8e71 36be 61b2 2d3d f2b0 193d
00000280: 50f6 5bbe 04fb d13c 5e62 d8bc fd87 593d
00000290: 8012 a4bc df95 81bd c8a5 903c fb73 f43c
000002a0: 3e8b 78be d186 8d3e 85c1 2a3e 85d3 3c3e
000002b0: 1310 aabd a4e2 fd3d 2569 e7bd 3a5e a9bd
000002c0: 49bb e4bc 9cc8 2bbd 7e90 f73d 2e14 0abe
000002d0: 6469 083d 6a75 2abe d709 c23d 75be 463d
000002e0: 00ec 60bc 9cc4 a13d 997b c73d dfb7 c7bd
000002f0: e2ab 923d 5350 bf3d fec3 c7bd 8db3 33bb
00000300: 6e0d 063d 8553 123c 39ff 863e a129 f6bd
00000310: c090 77bd 78f1 073d 9219 203e 666f c3bb
00000320: 14c2 05bc f2b3 253d 2fbb eabd dadd d43d
00000330: 6dc0 c0bd 21a2 53bc 211d 233e 5095 92bb
00000340: 96cb fcbb f942 253a 5821 1f3e 536e 2e3e
00000350: f26f 633d 4b16 863d 8ca7 76bd e7ad 0cbb
00000360: 9a03 7a3d 9210 733d 8f50 4b3e 1149 aabd
00000370: 10c6 113e 1e46 933d de8f 95bd 455f 02bd
00000380: 62fc dc3d a462 d8bc 08ef 643d 668b 703c
00000390: 5105 ac3d d2ff ca3d 58ac d33d 984d 4d3a
000003a0: 9094 cdbd 90d9 993d 4850 f03b bd19 0c3e
000003b0: a55b 34bd 4830 fe3c 66f0 ebbc 4a5a 89bd
000003c0: 74f0 6bbe 0450 a43c e792 ca3c 348f 7fbc
000003d0: f5a9 13bd 8432 553d 092c 0c3e db86 a9bc
000003e0: 943a e1bd 27f5 943d 3faa 6b3d 2392 ce3d
000003f0: a599 78bd c8d0 93bd 8984 6cbc d17f 4ebc
-0.0036775533 -0.0052887984 -0.1937512 -0.0013756934 -0.036734376 0.006664086 0.00963842 0.030823544
-0.0057994598 0.054108657 -0.115754925 0.12757136 0.08475388 -0.057680227 -0.08053433 -0.050930623
-0.061819475 0.0990791 -0.11952781 -0.0750016 -0.22879419 -0.06368502 0.002627518 0.13307738
-0.14198165 0.027412726 -0.09284257 0.08844783 -0.01770599 -0.09724817 -0.008974474 0.08485554
0.16430783 -0.07272482 -0.037806667 0.0040499913 0.21873488 -0.07907493 -0.013607982 -0.24978642
0.06039364 0.043820787 0.024585966 0.17698488 -0.10534697 0.02635099 0.10876371 -0.03739323
-0.10519147 -0.013772463 0.25085798 0.009693634 0.17754357 -0.021361964 -0.00824966 -0.13707356
0.023502827 -0.072661154 0.094296135 0.0931004 -0.07987251 -0.15185046 0.11509785 0.25909477
0.18358907 0.08170359 -0.109534465 -0.026175255 -0.048899926 -0.18187219 0.083926894 -0.088300854
0.06469522 0.12031716 0.06323387 -0.046626087 0.15180163 0.1875571 -0.009784061 -0.11473752
-0.047116395 0.14504346 -0.09615039 0.02045012 0.034975886 -0.14086054 0.13530529 0.05437171
0.119115844 -0.044089194 0.22368106 -0.08523703 0.05925626 -0.09669609 -0.07379242 0.10561714
-0.010745896 0.154805 0.05838196 0.06911033 0.25504905 -0.0035723394 0.15233432 -0.18592206
0.094748504 0.1698337 0.08732484 -0.24451737 -0.20587362 -0.002909332 0.03408909 -0.060142405
0.07621361 0.19951011 -0.1584021 0.17699224 -0.08694334 -0.050216824 0.12636136 0.15649445
0.07797184 -0.0599413 -0.10734331 0.13292083 0.055616103 -0.14324273 -0.011476085 0.01919667
-0.046870243 0.060241435 -0.017613146 0.05407292 -0.07218622 0.09453474 -0.045916554 0.026740002
0.11656877 0.06465197 0.04386843 -0.13344744 0.11337319 0.11311004 0.16647662 0.06897188
-0.13909872 -0.026354041 -0.1146422 0.009724681 0.05408248 -0.14952573 -0.12903032 -0.0017385834
-0.076851204 0.044372287 -0.08680794 0.0490554 0.077633254 -0.17816755 0.042406444 0.037522264
-0.2148068 0.025632389 -0.026414093 0.053108204 -0.020028353 -0.06327414 0.017657176 0.02984046
-0.24271867 0.2764192 0.16675384 0.18440063 -0.08303847 0.12396744 -0.112993516 -0.082699254
-0.027921336 -0.041939363 0.120881066 -0.1348426 0.033303633 -0.16646352 0.09474533 0.048521478
-0.013728142 0.078988284 0.09740371 -0.097518675 0.0716169 0.093414925 -0.097541794 -0.0027420253
0.03272765 0.008931045 0.26366594 -0.12019659 -0.06044078 0.033189267 0.15634754 -0.0059642075
-0.008163948 0.040454812 -0.11461484 0.10393877 -0.09411702 -0.0129170725 0.1592908 -0.004473366
-0.007714699 0.000630423 0.15540063 0.17034273 0.05552668 0.06547221 -0.06021838 -0.0021465959
0.06103859 0.059341975 0.1985495 -0.083147176 0.14235711 0.07191108 -0.07302831 -0.031829137
0.10790326 -0.026414223 0.05589202 0.014681673 0.083994515 0.09912075 0.10335606 0.0007831692
-0.10038102 0.075122 0.007333789 0.13681693 -0.04403271 0.031028882 -0.028801154 -0.067066744
-0.23040944 0.020057686 0.024728252 -0.015598107 -0.036050756 0.05205013 0.13688673 -0.020694187
-0.10997501 0.072733216 0.057535406 0.10086467 -0.0606934 -0.07217556 -0.014435896 -0.012603716

7.bias f4 [64]
00000000: dbb3 2abb c5dd 363d 53b8 ad3c 2585 d5bc
00000010: 4f3f 71bd 1b81 c33c 591a 7f3c 5932 863c
00000020: 772e 8e3c a400 5dbd 5a96 cf3c a31b 21b9
00000030: 5214 60bd 5c0b f93c 2602 22bd 6db8 8a3d
00000040: 2563 29bd ecbe aa3d 4260 a7bc 021c a33c
00000050: 7d1a 873c bee7 eb3c 8c2d 75bd 65b7 96bd
00000060: 7e40 35bc a26c c6ba 4b1f 8dbc f72a ee3c
00000070: df97 433d dbfb b43b a852 b43c 4139 0c3d
00000080: 39d7 26bd ddb1 91bd 97a0 b73d bcc2 85bd
00000090: 8a9b 1e3d da09 91bd 57b4 3a3d b51d 09bb
000000a0: dc5a 043a a4b6 763c 6449 793d 2356 833c
000000b0: 74b3 073d dc2d 613d 6ad0 633d da2d ae3c
000000c0: 4e42 053d a715 423d 5998 09bc 679b 2fbd
000000d0: b66d e73d da33 763d 5330 1dbc 1588 343d
000000e0: ba1d 153d 0db3 be3c 3966 0a3b 87e7 7a3d
000000f0: faca 473d cb35 4939 3248 483d 48ae 393d
-0.0026047144 0.04464509 0.021206057 -0.026064465 -0.058898266 0.023865273 0.015570247 0.01638143
0.01735614 -0.05395569 0.025340248 -0.00015364452 -0.05470688 0.030400924 -0.03955283 0.06773458
-0.041354317 0.08337197 -0.020431641 0.019910816 0.016492123 0.028797027 -0.05985789 -0.073591985
-0.011062739 -0.0015138576 -0.017226836 0.029073222 0.047752257 0.0055231876 0.02201207 0.03423429
-0.040732596 -0.07114003 0.08966177 -0.06531283 0.038722552 -0.07081957 0.04558214 -0.0020922248
0.00050489395 0.015058193 0.060861006 0.016032284 0.033130124 0.054975376 0.05561868 0.021262098
0.032533936 0.04738393 -0.008398139 -0.042872813 0.113002226 0.060108043 -0.009594041 0.04407509
0.036405303 0.023278737 0.0021118058 0.061255958 0.048777558 0.00019188893 0.048896976 0.045332223

9.weight f4 [8, 64]
00000000: 7788 3b3d 52b9 083c ba8c 003d a833 28bd
00000010: f1ed 91be 97b5 2e3e 1b2b 343d a7ef ee3d
00000020: 5b36 3c3e 0637 333e 9e5b 523d d727 c0be
00000030: e555 15be b1f6 04be a94d 8a3d 0a3a 1d3e
00000040: 003a 8b3d c17f e43d 28c5 4dbd be87 d7bd
00000050: fe64 71be 81ac b23d d4ea 39bc 7e8b 243f
00000060: dc16 743e 4fd4 933d ca2b b33e e66a 5bbc
00000070: 92bb 6f3e de5e 5f3e fafd 8fbe c656 a6bc
00000080: 00a3 ed3d 2612 173e a7be 6e3e 2d26 233d
00000090: be5c 4fbd 2d6b bd3e e78a ac3d 7994 bdbe
000000a0: 0090 63bd dc3c 383d 2057 49be bc8c 6d3e
000000b0: 7c2f a53e fe70 3bbe e000 9d3e 8728 833d
000000c0: be99 df3d 992a a63e a1dd ba3d ef94 5ebe
000000d0: c584 bc3d 5b94 aabe 87db cbbc 4851 f43d
000000e0: 0c97 bebe cae3 973c e891 3ebd c2af a4bd
000000f0: b560 893d 1c69 e6bd d3fd bc3d 836f 1c3e
00000100: bbcf 8abc a644 8c3e d6cc 92bc 9d67 10bd
00000110: bb44 083e 434b 0a3e d720 8e3e 6ca0 353f
00000120: f694 5fbe 0525 46bd 76b0 27bd 0455 b5be
00000130: 49c9 e3bd 6df8 f33b e1e7 ed3a ab57 c53d
00000140: 62fe d93c 5785 943d 723e a8bc d717 8bbe
00000150: 8dbd ac3e 147a 5e3e 0059 70bd f2b8 1cbf
00000160: 17bc 673e 0da0 f53c 20f8 29be 39f0 053e
00000170: 6f68 2ebe 2368 d93d 2024 143d fc9f 523e
00000180: 3019 62be bbf0 36be 6b95 1e3f 7c2e b1bc
00000190: 82e6 ee3b 2c45 903d 57d3 e63d a4ee 2fbd
000001a0: 0c36 853d 4971 7f3e 9a0d c0be 4f03 003d
000001b0: e6ee 3abe c175 183e 14b3 c03d 9869 5a3d
000001c0: 70f8 ebbe fb5d 113e 864e 9d3e 5bfd 8b3e
000001d0: 15fb 8ebd 956f 81bd 46b3 ef3c 9bce f93c
000001e0: 3a23 f23d 7180 143d aba7 67bd c2af 67bb
000001f0: c662 c5bd 51fd cc3e d2e0 683e 4c05 01be
00000200: 26ff b23e 1cc3 f83c 8aa8 42bb e64f bf3d
00000210: 7be8 db3d 003d 96be 954e d2bc 4160 22be
00000220: 981a 57be 5a95 a7bd 3ae7 393e c037 42bd
00000230: 1d4c 163b 6844 21be 0714 aebd cf93 37bd
00000240: 29af d8bd abc7 c4bd 54ee 633e 83c9 553e
00000250: 41a4 903e c3f5 4cbe e635 1d3e 9790 0b3f
00000260: 7d82 29bc 9e8e d03d 63d0 13be b597 963e
00000270: 8cac ebbd 329d 72bc 8e59 d63e 5ecc 28be
00000280: 73a6 ec3a 271c f8bd 1b8e f23a 34c1 2f3e
00000290: f45f 2ebe 6ab4 843e c5b9 1ebe 419e 92bb
000002a0: 6299 92bd b2c7 80be 27e5 423e a2cb 963e
000002b0: d922 ff3d 7610 05be b569 debe ec81 f93c
000002c0: 917f aebd 277e 7fbe 4b3b b6be 5833 903d
000002d0: dcf7 17be 4d32 a1be 6025 033d 247c e9be
000002e0: 3182 1e3e 47d8 96bd 53b7 92be 0bf9 7abe
000002f0: 453c 903e 1fe6 46bd 124e c73d a8e0 53be
00000300: f0c8 7e3d abfd 80bd 816e 29be df3d 0e3d
00000310: 98eb 803e 427f 433e 752a 11be 0635 37be
00000320: 07d3 4f3e ade8 43be 33b0 453e fcc5 09be
00000330: e392 b53d 7def 6abc bf7b bebc 6785 ebbd
00000340: 672e b4bd eebe 1b3e 4caf 9ebe 6b38 c53c
00000350: de00 7b3e 88b7 87be f5e8 ad3e b26d 113e
00000360: 952e 14bd f53f 4bbe 1e24 d0be 8ef2 87be
00000370: 11bd 45be c320 373d 3452 d2be 4eef 493d
00000380: fd9d 9d3e 707b ac3e 4720 8bbe 0c5e 913c
00000390: 5747 b2bc ef67 3d3e a5f2 a5bd 399f 903d
000003a0: b350 353e 5dfb 8a3a 0129 af3e 5c54 433e
000003b0: d08f 5fbd e751 d33e ea88 6ebe 696c 5bbd
000003c0: c0ed 223e 9bd6 cf3e cec7 26be ba2b d93c
000003d0: f504 e4be 26d1 bb3e 3964 a93d 3006 9d3d
000003e0: 9d86 6cbe e598 b33d 46bc bcbd fd57 a23d
000003f0: 9768 133c 95c8 4a3c 2397 73be 1ae5 0e3b
0.04578444 0.008344965 0.031384207 -0.04106489 -0.28501847 0.17061459 0.04398642 0.11666804
0.1838011 0.17501459 0.051356904 -0.37530395 -0.14583547 -0.1298473 0.06753094 0.15354171
0.06798172 0.111571796 -0.05023685 -0.10523938 -0.23573682 0.08724309 -0.011347491 0.6427535
0.23836845 0.07218229 0.34994346 -0.013392186 0.23411396 0.21813533 -0.28123456 -0.020305049
0.116033554 0.14753017 0.23314916 0.03983133 -0.050625555 0.3699583 0.08424931 -0.37027338
-0.05555725 0.044979915 -0.19662142 0.23198217 0.3226279 -0.18304822 0.3066473 0.06404214
0.10917996 0.32454374 0.091243036 -0.21736501 0.09205011 -0.3331631 -0.024884952 0.11929566
-0.37224615 0.018541235 -0.046525866 -0.08041336 0.067078985 -0.11250517 0.09228101 0.15276913
-0.016944757 0.27396125 -0.017919939 -0.035255063 0.13307469 0.13505273 0.2775943 0.7094791
-0.21834168 -0.04837515 -0.04093977 -0.35416424 -0.111223765 0.007445386 0.001815077 0.09635862
0.026610557 0.07251995 -0.020537589 -0.27166626 0.33738366 0.21726257 -0.058678627 -0.61219704
0.22630344 0.029983545 -0.16598558 0.13079919 -0.17032026 0.10615566 0.036167264 0.20568842
-0.22079921 -0.17865269 0.61946744 -0.02162861 0.0072906623 0.070444435 0.112707786 -0.042952195
0.06504449 0.24945559 -0.37510377 0.031253155 -0.18255195 0.1488867 0.094091564 0.05332336
-0.4608798 0.14196007 0.3072397 0.27341732 -0.06981484 -0.06320111 0.029260289 0.030494025
0.11823125 0.036255304 -0.056556385 -0.0035352563 -0.0963798 0.40037015 0.22742012 -0.12599677
0.34960288 0.030366473 -0.0029702508 0.09341411 0.107377015 -0.29343414 -0.025672236 -0.1585703
-0.21006238 -0.081827834 0.18154612 -0.04741645 0.002293355 -0.15748751 -0.08499914 -0.044818696
-0.10580284 -0.09608396 0.22258884 0.20877652 0.28250316 -0.20015626 0.15352592 0.545175
-0.010346052 0.10183452 -0.14434962 0.29412618 -0.1150752 -0.014807986 0.418652 -0.1648421
0.0018054977 -0.12114745 0.0018505485 0.17163545 -0.1702879 0.25918895 -0.15500553 -0.0044744317
-0.07158162 -0.25152355 0.19032727 0.29452235 0.124578185 -0.1299456 -0.43440023 0.03045746
-0.08520425 -0.24950467 -0.35592112 0.07041043 -0.14840645 -0.3148369 0.032018065 -0.45602524
0.15479352 -0.073654704 -0.2865549 -0.24509065 0.28170982 -0.048559304 0.097316876 -0.20691168
0.062203348 -0.06298383 -0.1654606 0.034726974 0.25179744 0.19091514 -0.14176352 -0.1789132
0.20295344 -0.19131728 0.19305496 -0.13454431 0.08865907 -0.014339325 -0.023252366 -0.11500054
-0.08797913 0.15209553 -0.30993116 0.024074754 0.2451205 -0.2650721 0.33966795 0.14202002
-0.036177237 -0.19848616 -0.40652555 -0.26552242 -0.19310404 0.04470898 -0.4107834 0.049300484
0.30784598 0.33687925 -0.27173063 0.01774504 -0.021762533 0.18496679 -0.081029214 0.07061619
0.17706566 0.0010603477 0.3421097 0.1907515 -0.05458051 0.41273424 -0.23294416 -0.053570185
0.15911007 0.40593418 -0.16287157 0.026510108 -0.44535032 0.36683005 0.08271069 0.07667196
-0.23098226 0.08769397 -0.09215598 0.07926939 0.008997104 0.012376924 -0.23788123 0.0021804036

9.bias f4 [8]
00000000: 5257 d43c dd3a 42bd 6b22 86bd 117c a6bd
00000010: be6d 953d 68d4 61be 9ef5 6c3c 4bc2 433e
0.025920544 -0.047419418 -0.065495335 -0.081291325 0.07296322 -0.22053683 0.014462857 0.19117086
